model/model.pth (torch, 12096 bytes, 4 tensors)

linear1.weight f4 [256, 6]
00000000: 8032 c63d 7c5b 7cbd 7690 3a3e 43e1 babb
00000010: b30d e43d aaec 8c3e fed7 1ebe 0d08 4dbe
00000020: fbc6 a7be 00a0 7cbc feaa 853e 8079 823e
00000030: bde3 c7be e700 77be ecd3 2dbe 7ce4 ca3e
00000040: 68bb b0be 54c2 71be a32e 873e 2557 193e
00000050: 22fb 9c3e 3cc2 9c3e a847 18be 6fb9 60be
00000060: ec19 acbe 8c86 793e d894 e1bd 6ca8 2c3e
00000070: 28cc 403d d1e8 72be 169b a53e 1c41 67be
00000080: bc4a e8bd 89f0 9abe 8452 d13e e8b1 203e
00000090: 7184 5f3e bbdf 9d3d 06f9 413e d53c ab3e
000000a0: d474 bfbd d63c 923e dc41 cebe a0c4 5c3e
000000b0: d8d7 9cbe c8d4 793d 32f6 d03e 2885 eebd
000000c0: 408b 883e d990 84be e265 aeba 4a39 ca3e
000000d0: c920 8ebe d8d8 213e fdb1 14be 39d4 993e
000000e0: e7cf ae3e 0baa aabe 77ee a23c 540f 06be
000000f0: 6773 c13e bcda 13be f156 e63d f886 64be
00000100: 04e1 9bbe c680 85be 02e4 ad3e b8b2 8a3e
00000110: c7da b5be e6aa 5e3e 733f 6dbe 0041 743e
00000120: 2de4 67be d0d7 48be 6064 a3bd 5824 97be
00000130: bdc5 27be fc8d 7abe d744 093e 02a2 213e
00000140: 852c b53e ca3e 69be 983c 96be 2c60 733e
00000150: b091 5e3e 000c c2be 9a7e 623d cb2a 0d3e
00000160: 3438 753e 766b a73e e09d 8cbd 8e5a e2bd
00000170: c07e b93e db34 903d 86b9 1c3e 02e0 58be
00000180: 4825 e1bd c497 0fbe 49d9 a6be aabe ae3e
00000190: d05b 463e d026 1b3e 9b51 90be 17f4 313e
000001a0: aebe f43d f80d 04bd 821d 493e fcf3 27be
000001b0: c955 9b3e 214c 093e 3225 083c e4f6 8a3e
000001c0: 8613 c03e 68fc 7a3e 8823 f5bd 0353 c83e
000001d0: 4f1d 403d cb91 77be f5e1 5cbe dec1 a63e
000001e0: a4a4 9fbe 678a c9be e88c 193d 12cc 853e
000001f0: ec26 c13e 34e7 b23e 899a 8a3e 192d 99bd
00000200: 6bc1 4fbd f3ac b3be decf 19be 90e9 2c3d
00000210: 449e a4be b3ea 92be dc0d f5bd e0ee 04bd
00000220: 7012 c5bd 007c fa39 dac0 a03e 873d 483e
00000230: 0744 77be 1aa8 193e ec5e 963e e8fa 31bd
00000240: fdf4 823e a6f0 833e d607 ba3d af48 cbbe
00000250: c660 5fbe 38a1 b3be d9fc bc3e eba4 f2bd
00000260: 469d 973e 4ee8 783e c8d2 c4be 651c b8be
00000270: 0968 9f3d 8773 cd3b 6251 c43e 9a24 9cbe
00000280: ea2e 5a3d 0a46 01be e962 a83e d055 2fbe
00000290: c13e be3d 897a 903d 4478 51be d4cd 3a3e
000002a0: d431 af3d 818c 2dbe 6433 08be 9cdb 8fbe
000002b0: d033 4dbd e499 9f3e c10a 8a3d 8622 9cbd
000002c0: bb71 ab3e 4788 b03e f9f5 7fbe 5d83 73be
000002d0: c8dc 063d dc94 a1bd dcf0 0bbe 2049 4a3c
000002e0: 3d16 bbbe 341c 4f3e 44d7 073e 9209 573d
000002f0: 699c 7bbe 5790 203e 8589 ebbc 2459 b83d
00000300: 34f6 8abd d7a6 a2be 407e 043c 51e5 cfbe
00000310: b434 cfbd 72e2 33be 3723 a93e 77c0 59be
00000320: d8cd 273e 5513 993e 23f7 98be 649d 393e
00000330: 8037 f23d 541d 40be e0ad ddbd bcb4 973d
00000340: cc0c 3c3e 1542 33be 69fb 6cbe a715 ca3e
00000350: 6c65 3dbe 956d 5bbe 354c cdbe ae05 cc3e
00000360: 77a2 fdbd f228 3ebe 4c97 5a3e 1ba5 b43d
00000370: c9e6 3b3e ae1c cc3e d9fb 4a3d fef9 503e
00000380: bea1 44be 608d 6bbe d261 d1be 781a c83d
00000390: 0782 57be 3eab aa3d dbcc 943e 56b3 89be
000003a0: 0166 913e 52ff a43e f90e c4be f5ff 543e
000003b0: 71ea 403e b378 383e 7b76 a9be 38ec 5ebd
000003c0: 54a4 93bd 1d49 c33e 96d0 7cbe 0139 6d3e
000003d0: b65c c13d d0c9 80be be4c b3be 9f05 773d
000003e0: e439 cf3e e691 1f3e 3807 d13e 0a23 cbbe
000003f0: 3e2b a53e 6c8b 6abc 66f0 1c3e 582a 15be
0.09677601 -0.061610684 0.1821917 -0.005703123 0.111354254 0.2752431 -0.15512082 -0.20022602
-0.32768998 -0.015419006 0.2610702 0.25483322 -0.39040938 -0.24121438 -0.16975373 0.39627445
-0.3451798 -0.23609287 0.26402768 0.14974649 0.3066035 0.3061694 -0.14871085 -0.21945737
-0.33613527 0.24367732 -0.11014718 0.16861123 0.0470697 -0.23721625 0.32344884 -0.22583431
-0.113423795 -0.3026164 0.40883267 0.15692866 0.21827866 0.07708689 0.18942651 0.3344485
-0.09348455 0.2856204 -0.40284622 0.21559381 -0.30633426 0.06099394 0.40812832 -0.11646491
0.2666874 -0.2589176 -0.001330551 0.39496833 -0.27759388 0.15805376 -0.14521022 0.30044726
0.34142992 -0.33332857 0.0198891 -0.13091785 0.37783358 -0.1443891 0.112470515 -0.22317111
-0.3044511 -0.2607481 0.3396302 0.27089477 -0.35518476 0.2174488 -0.23168735 0.2385292
-0.22645636 -0.19613576 -0.079781294 -0.29519916 -0.16384025 -0.24468225 0.13405167 0.15784457
0.35385528 -0.22777858 -0.29343104 0.23767155 0.21735263 -0.3789978 0.055296518 0.13785855
0.23947221 0.32699174 -0.0686605 -0.11052428 0.36229515 0.070413314 0.15305147 -0.21179202
-0.10993439 -0.14022738 -0.3258765 0.3412984 0.19370961 0.15151525 -0.2818726 0.17378269
0.11950432 -0.032239884 0.19640163 -0.16401666 0.30338886 0.13407947 0.008309649 0.27141488
0.37514895 0.24510348 -0.11969668 0.39125833 0.04690295 -0.2417671 -0.21570571 0.32569784
-0.31180298 -0.39363405 0.037487894 0.26132256 0.37725008 0.3494202 0.27071026 -0.07479305
-0.050721567 -0.35092887 -0.15020701 0.04221493 -0.32151997 -0.28694686 -0.11965534 -0.03245437
-0.09622657 0.00047776103 0.31397134 0.19554721 -0.24147044 0.15005532 0.29369295 -0.043452173
0.25577536 0.25769538 0.09083526 -0.3970389 -0.2181426 -0.35083938 0.36911657 -0.11847862
0.29612178 0.24307367 -0.38442063 -0.35959163 0.07783515 0.0062698754 0.3834334 -0.30496675
0.053267397 -0.12624374 0.32887962 -0.17122579 0.09289313 0.07054622 -0.20456034 0.1824258
0.08554426 -0.16948129 -0.13300854 -0.28097236 -0.05009824 0.31172097 0.067403324 -0.07623772
0.33485207 0.3447897 -0.24996175 -0.2378058 0.032925397 -0.07889721 -0.136661 0.012346536
-0.36540404 0.20225602 0.13265711 0.05249936 -0.24571384 0.15680061 -0.028752098 0.09001377
-0.06785241 -0.31767914 0.008086741 -0.40604642 -0.10117474 -0.17566851 0.3303468 -0.21264826
0.16387117 0.29897562 -0.2987605 0.18126446 0.11826992 -0.18761188 -0.1082418 0.07407519
0.18364257 -0.17505677 -0.2314278 0.39469644 -0.1849572 -0.21428521 -0.40097204 0.39848083
-0.12384503 -0.18570307 0.21346778 0.08820554 0.18349756 0.3986563 0.049556587 0.20407864
-0.19202325 -0.23003149 -0.40894943 0.097706735 -0.21045695 0.08333443 0.29062542 -0.26894635
0.28398135 0.32226044 -0.38292673 0.20800765 0.18839432 0.18014793 -0.33098206 -0.054424495
-0.072090775 0.38141719 -0.24688944 0.23166277 0.09441511 -0.2515397 -0.35019487 0.060308095
0.40473855 0.15583 0.4082582 -0.3967517 0.32259554 -0.014315467 0.1532608 -0.14566934

linear1.bias f4 [256]
00000000: 314e b7be f489 b9bd 70d7 94bc 4651 a8bb
00000010: 6839 c73d df60 3bbe 828f a63e abbf bfbe
00000020: fea2 aabe d336 06be 93f0 c63e 89ca a83e
00000030: 42ff 7abe f3e8 b93e d751 dabd 5a7f 713e
00000040: 3ce9 333e 2777 833e dc7f b43e e9bf 853e
00000050: 3873 76bd 39e7 c43e 1f90 57be 989c 38bd
00000060: a223 883e a42d 9fbe 1d32 febd 4ca9 863e
00000070: 8a33 0dbe f982 be3d fa38 09be 79c8 de3c
00000080: 0874 c93d 7621 8abc e2ef b83e 035c bcbe
00000090: 6d2b e4bd a8a4 253d a0a5 a7be 6c79 643e
000000a0: 796e 35be 30b5 973e 22e4 30be f399 a43e
000000b0: 4946 7f3e 1021 da3d 70df bd3e 637e 88be
000000c0: ebf8 933b ebc2 b73d ea0e aa3d efe4 53be
000000d0: 4be2 9fbe ded6 52be c348 bdbd 5013 c5be
000000e0: c900 7d3d 4443 5cbe 7982 afbe 6574 a8be
000000f0: a28c 2b3e 9a33 b33e 6711 b23e db24 c73e
00000100: 6ae1 2abe e36a 643d 508b 14bd 88a6 81be
00000110: ea5b 15be aea7 aebe 88cc 603e e7bc 60be
00000120: c927 f93d cd48 593d e2ee 70be 8cc1 4fbe
00000130: 9c83 063e 1e91 ab3e d887 0b3e ae5d 013e
00000140: 0b06 91be ffb9 32be 561f 94be c836 363e
00000150: 302e 87bc b810 0d3e 72ea 9ebe 4977 a73e
00000160: a872 4f3e 58c0 c8bd 5ce7 c33d 0db8 c93e
00000170: 1868 bdbe c377 0ebd c802 64be 546e 9abd
00000180: 82e2 ba3e c777 b33e 6dd3 2bbe 8127 d0be
00000190: 8539 aebe 822f 9a3d 2962 a93d 7c59 5e3e
000001a0: e820 253e 3848 8f3d bb8f 543e 34f8 91be
000001b0: 132a 8c3e 0027 ccbd c864 2a3e 7780 103e
000001c0: 7d00 30be ce44 36be b2bb 833e 9465 b03c
000001d0: 348d 963e 5019 7bbe e78e b43e 90d7 a6bc
000001e0: 27e0 d1be 8c0f 9abd bac8 19be 0037 223c
000001f0: e219 0e3e 30d4 683e b995 d0be 5cc2 28be
00000200: dca8 733d dcd1 84bd a9b4 7dbe 3532 74be
00000210: 2818 ba3e b806 57bd 9c04 153e 547b 623e
00000220: 62c6 a63e 5b6a ab3e 465d 0ebe 04b6 863e
00000230: b5bd da3d 6e3b 913e 9b83 ba3e 7aed 95bd
00000240: 58b9 a53e e478 c0bd fb2e c5bd 6407 8cbd
00000250: f16d f03d 02b2 c33e e2ac 2dbe 4c9d edbd
00000260: 5e68 b63e b84a 403d 12ca f73d 4d09 c83e
00000270: 045f 3f3e e88c a13d 3e53 33bd 0f99 123d
00000280: 6556 993e 710d c73e f5b8 26be 381d 11be
00000290: d0ba 0dbe c001 c83b 286e 1c3e a8b9 fa3d
000002a0: d1c8 aa3c 661f 033e d75f c5be 6f66 85be
000002b0: 9c65 1b3d 0035 35bd 4a84 48be 722f 633e
000002c0: 9e46 5ebe 42c8 953d b187 b83d 42d7 933e
000002d0: f4b2 05be 2356 813e 3715 46be 6cbe b9be
000002e0: 8691 37be fe12 3b3e 90e8 11bd a020 163e
000002f0: a255 9f3e ca7a bf3d 6d5d babe 778b 9b3e
00000300: 5488 9ebe c390 003e f2b1 c3be e6d7 9ebe
00000310: 4054 efbc c8ce bbbe 6044 843e a6df a5be
00000320: 44e1 b23e 6040 64bc ce4e 13be ebf2 203e
00000330: 2822 2dbd 726b 7b3e 9e7f bbbe da67 c8be
00000340: 80fe 773e d6e3 ccbe c2ca b73e 85ca 8ebe
00000350: edce ec3c 4049 19bc ccc5 923d e851 e53c
00000360: 2c94 19be 7c26 8cbe 5bfd a5be 2054 94bd
00000370: 2df9 21be 00f4 083e 4f4a 363e 35f7 993e
00000380: 0617 c93c 4201 ca3e 5e31 9b3e 5210 333e
00000390: d41a c3bd a851 70bd f4ec 5a3e fab1 443d
000003a0: d89a 95be a3ee 5cbd 8223 eebc dde0 89be
000003b0: c399 a7be 281d 953e c09f 323d 636f 783d
000003c0: 90f8 b73c 8fee 903b fd48 953e 0108 0ebd
000003d0: d047 763d 9b1c 68be 366d 8abe 5532 08be
000003e0: 2368 41be cad2 c93c e515 ce3c 9ea3 6e3e
000003f0: 5d18 d23d 644c 863e 155c 91bc 54fb 193e
-0.35801843 -0.090595156 -0.018169135 -0.0051366417 0.09727746 -0.18298672 0.32531363 -0.3745092
-0.33327478 -0.13106851 0.3885542 0.32967022 -0.24511436 0.3631054 -0.10660141 0.23583737
0.1756944 0.25676844 0.352538 0.26122978 -0.060168475 0.3845766 -0.21051072 -0.045071214
0.26589686 -0.3108951 -0.12411902 0.26301038 -0.13789192 0.09302325 -0.13400641 0.027195202
0.09836584 -0.016861659 0.36120516 -0.3678895 -0.11141095 0.04044023 -0.3274355 0.22311944
-0.17717923 0.29630423 -0.17274526 0.32148704 0.24929155 0.106508374 0.37084532 -0.26658925
0.0045157573 0.089727245 0.08303626 -0.206928 -0.31227335 -0.20589778 -0.09242394 -0.38491297
0.061768327 -0.21510035 -0.3427923 -0.32901302 0.16752866 0.35000306 0.34778902 0.38895306
-0.16687551 0.055765998 -0.03626567 -0.25322366 -0.14585844 -0.34112304 0.21953022 -0.2194706
0.121657915 0.053047944 -0.23528627 -0.20288676 0.13136142 0.33509153 0.13626039 0.12633392
-0.28324923 -0.17453764 -0.28930157 0.17794335 -0.016501516 0.13775909 -0.31038243 0.32708195
0.20258582 -0.09802312 0.09565613 0.39398232 -0.3699348 -0.034782182 -0.22266686 -0.07540575
0.36500937 0.3505232 -0.16779871 -0.4065514 -0.3402826 0.07528593 0.08270676 0.21713823
0.16125834 0.069961965 0.20757954 -0.28509676 0.2737585 -0.09968376 0.16640007 0.14111505
-0.17187686 -0.17799684 0.25729138 0.021532811 0.29404604 -0.24521375 0.35265276 -0.02036646
-0.40991327 -0.075224966 -0.15017977 0.009900808 0.13877061 0.22737193 -0.4073923 -0.16480392
0.05948721 -0.0648534 -0.24775948 -0.23847277 0.36346555 -0.052496642 0.1455254 0.22117358
0.3257323 0.3347958 -0.13902768 0.26310742 0.10680715 0.28365654 0.36428532 -0.07320686
0.3236797 -0.09398058 -0.096281014 -0.06837347 0.1173972 0.38221747 -0.16960481 -0.116022676
0.356265 0.046946257 0.12099089 0.39069596 0.1868859 0.07888204 -0.043780558 0.0357905
0.29948726 0.38877442 -0.16281493 -0.14171302 -0.13840795 0.0061037242 0.15276396 0.12242442
0.02084771 0.12804946 -0.38549682 -0.26054713 0.0379387 -0.044239998 -0.19581714 0.22186068
-0.21706626 0.07313587 0.09010256 0.28875166 -0.13056546 0.2526103 -0.1934403 -0.36278093
-0.17926607 0.18268964 -0.03562218 0.14660883 0.3112002 0.09349592 -0.36399403 0.3037984
-0.30963385 0.12555222 -0.382217 -0.31024092 -0.029214978 -0.366812 0.25833416 -0.32397193
0.3493749 -0.013931364 -0.1438553 0.15717666 -0.042268902 0.24552706 -0.36620802 -0.39141732
0.24218178 -0.40017575 0.3589688 -0.27888885 0.028907264 -0.009355843 0.07166633 0.027993158
-0.1499793 -0.2737311 -0.32419857 -0.07242608 -0.1581771 0.13374329 0.17801784 0.30071416
0.024547111 0.39454085 0.30311102 0.17486694 -0.095266014 -0.058671623 0.21379453 0.048021294
-0.292197 -0.05393852 -0.029069666 -0.2692937 -0.32734498 0.29123807 0.04360938 0.0606531
0.022457391 0.0044229697 0.29157248 -0.034675602 0.06012708 -0.22667162 -0.27036446 -0.1330045
-0.18887381 0.024636645 0.025156925 0.23304603 0.10258553 0.26230156 -0.017744103 0.1503728

linear2.weight f4 [3, 256]
00000000: 7f41 cdbc 864d 61bd e027 bbbc 0ca2 703d
00000010: 1090 afbc 2feb 8c3c 8f77 e33c 92f8 7f3d
00000020: 9680 0e3d c273 ebbc f842 d43c eb23 143c
00000030: 2094 1ebd e363 503d 53c5 45bd d655 70bd
00000040: a0c1 30bb f6f5 2ebd 16a4 9fbb d715 7ebd
00000050: c047 fabc 2439 2c3d 105e 063d 9b75 7abc
00000060: c891 c2bb b726 3e3d eb67 80bc 1cbc 793c
00000070: 284e 163d 12d7 ec3c 263e 32bd 1518 edbb
00000080: c0e1 ae3c 2247 abbb e47a f6bc 265d 6e3d
00000090: 08d9 eb3c 20db 5b3b c82f e8bc 8c2e 81bc
000000a0: 612e 0a3d 2c41 7fbc bc05 74bd 17be 65bd
000000b0: 0265 48bd 7a1a 513d aa56 1b3d 008a c939
000000c0: 5438 853c fab7 3ebd 493d 8e3d d4f3 9a3c
000000d0: 06d1 413d 74fc 713d e946 0abd 70a3 7ebc
000000e0: 89a8 b93c 0f81 65bc cd29 2bbb d875 6e3b
000000f0: a808 1c3d ea73 63bc b2ff c8bb dec4 6c3c
00000100: 19b3 aabc 0691 ef3b 6c35 ccbc 6eac 593d
00000110: 708d 06bc a819 953c 1a15 2dbd 54e1 3dbd
00000120: 05c3 223d e9a7 3e3b 34f2 093d 992a 6b3d
00000130: f4b8 0b3d c3cf b63b 5825 7d3d 169b 853c
00000140: 10ad 8fbb c9e9 a33c 2eed 1e3d 8066 3fbd
00000150: a0f5 583c 04e4 19bd e087 84bc 3b4e d0bb
00000160: 82dc 1f3d 8a78 30bd 5013 013a 58d6 bc3c
00000170: 64fe 163c 739a 1dbd 2048 ad3b 4875 47bc
00000180: c064 b23b 42cb 213d 6d2d cb3c 4081 c0ba
00000190: a9a1 853c 9bc8 2abd cff7 4a3d 62ab 0bbd
000001a0: 6a96 5d3d 404b 9abb d69d 3d3d 5bfd 693d
000001b0: 4324 373d f2d2 673c 209f 943b 84ba 8abc
000001c0: 771d 1dbd fe83 153d 0310 f93c 1ee7 32bd
000001d0: f097 313d 00e5 073b de36 083d e49b c93c
000001e0: ff75 553d c822 47bd a042 fbbc 50f6 fabc
000001f0: 9a89 52bd 18c3 17bd 509f ee3b 4a2d cb3c
00000200: 7644 54bd 9ce6 0a3d ce57 aebc 7fbd 2fbd
00000210: df88 8f3c 9e4d 04bd 3773 e6bc dccc c5bc
00000220: ba2b 4d3d 1db3 1d3b 0cf0 d8bc fa21 e9bc
00000230: b9e6 afba 5e43 ab3b a06c 71bc ed9c eebb
00000240: 63af 54bd c4aa 8bbc 1b88 debc 50da f43b
00000250: 9d4d ebbc 27f6 41bc 885b 57bd a0dc 633d
00000260: 9ecd 3dbd 3481 0cbd c0c6 443d c5c5 49bd
00000270: c0a2 cdbc 807f 68bb 5c13 a63c b8a6 63bd
00000280: 8e02 f93b 90af 46ba f13c 1fbd f470 8e3c
00000290: 58a6 3f3d c0e1 d9ba 0679 2bbd 1ccd 223d
000002a0: 3425 80bc a577 e53a 12ee 3fbd ed8e 1f3d
000002b0: 85e4 593d f9d9 983c 3074 783c 97a6 f33c
000002c0: 80ef 413d 6335 693d 4a30 8a3c e7af 5d3d
000002d0: b79c 153d 3a71 59bd 2e6a 81bb d822 523c
000002e0: f583 c6bb ac1f e33c 2c57 7b3d 58a1 58bd
000002f0: 4023 8a3b db30 3dbd 621b 0bbb fd70 99bc
00000300: 2040 d63b 2340 473d 206d 0d3d 6010 853b
00000310: 4c57 e1bc f9ec 273d b79f 30bd e0fb 77bc
00000320: 1098 91bc c09a e3bc d0a3 65bd d45a 8d3c
00000330: 684e 6e3c 6f36 b4bb 43fc 293c 9537 7ebd
00000340: b497 9abc b22d 013d 0d11 183d 61c2 083d
00000350: cca0 b03c 0ad0 15bd 4064 0c3d 3fc4 3bbb
00000360: d6c2 273d 1ac1 1a3d 5e86 29bd daf7 02bd
00000370: c6fc b3bc d01e 873b f63f 2ebd 2225 623d
00000380: 28f9 da3b 6430 9dbc f053 51bc f50c 75bd
00000390: c60c 153d ac83 acbc 84d0 713d 02b6 063c
000003a0: 000e 22bd a41f 6f3d f912 1bbd 2b58 1abd
000003b0: 56bc 71bd 65d8 643b de47 3dbd 9c77 2a3d
000003c0: 52fe c1bc bc16 37bd 110d 6cbd 6382 e6bc
000003d0: 043b 793d 4251 65bd b5ab bb3c f7bf b6bb
000003e0: e394 0bbd 9554 4abd 3dca 613d dc92 193c
000003f0: f36d a1bc 7157 bebc 71aa 1a3d ba97 7c3d
-0.025055645 -0.055005573 -0.022846162 0.05874829 -0.021430999 0.017201988 0.02776697 0.062492914
0.034790598 -0.028741721 0.02591084 0.009041767 -0.03871548 0.05087651 -0.048283886 -0.05867561
-0.0026970878 -0.042715035 -0.0048718555 -0.062032547 -0.030551791 0.04204668 0.03280455 -0.015286828
-0.0059377886 0.04642364 -0.015674552 0.015242603 0.03669563 0.028911147 -0.0435163 -0.007235537
0.02134788 -0.0052269856 -0.030087896 0.058194302 0.028790012 0.0033547357 -0.028343096 -0.015769266
0.033735637 -0.015579503 -0.05957578 -0.056089487 -0.048924454 0.05105064 0.037924446 0.00038440526
0.01626221 -0.046562172 0.06945283 0.018915094 0.04731848 0.05907865 -0.03375903 -0.015541896
0.022663372 -0.014007821 -0.0026117445 0.0036386158 0.038094193 -0.013882617 -0.006133997 0.014451234
-0.020837354 0.0073109893 -0.024927817 0.053142957 -0.008212432 0.01820071 -0.042256452 -0.046357468
0.039736766 0.0029091781 0.03367825 0.05741367 0.034111932 0.0055789663 0.061803192 0.016309302
-0.0043846443 0.020008938 0.03880041 -0.04672861 0.013242155 -0.03757097 -0.016178071 -0.006356982
0.039028652 -0.043083705 0.0004923837 0.023051426 0.009215925 -0.038477372 0.005288139 -0.012173958
0.0054441392 0.039500482 0.024801934 -0.0014686957 0.016312437 -0.04169522 0.049552735 -0.03409899
0.054098524 -0.0047086775 0.046293102 0.057126384 0.044712316 0.014149414 0.0045355707 -0.01693464
-0.038358178 0.03650283 0.030403143 -0.04367744 0.04335779 0.002073586 0.03325545 0.024610467
0.052114483 -0.048617154 -0.030671418 -0.03063503 -0.05140076 -0.03705129 0.007282175 0.024801869
-0.051823102 0.033911332 -0.021282103 -0.042905327 0.01752132 -0.032300584 -0.02813111 -0.024145536
0.05009053 0.0024063059 -0.02648165 -0.028458584 -0.0013420201 0.0052265367 -0.014735371 -0.0072818906
-0.051925074 -0.0170492 -0.02716451 0.007472314 -0.028723532 -0.011838472 -0.052577525 0.055630326
-0.04633867 -0.034302905 0.048041105 -0.049260873 -0.02510202 -0.0035476387 0.020272903 -0.055578917
0.0075991815 -0.00075792614 -0.038876478 0.017387845 0.046789497 -0.0016623065 -0.041863464 0.03974639
-0.01564274 0.001750697 -0.0468579 0.038954664 0.05319645 0.018658625 0.01516442 0.029742522
0.047347546 0.05693568 0.01686873 0.05412283 0.036526408 -0.053086497 -0.003949425 0.01282569
-0.006058211 0.027725063 0.06136243 -0.052888244 0.004215628 -0.04618917 -0.0021226038 -0.018730635
0.006538406 0.04864515 0.034527898 0.00406079 -0.027507447 0.04099748 -0.043121066 -0.015135735
-0.017772704 -0.027783751 -0.056064427 0.017255224 0.014545061 -0.005499653 0.010375085 -0.062064726
-0.018871166 0.03153772 0.037125636 0.0333885 0.021561049 -0.036575355 0.034275293 -0.0028650907
0.040957294 0.037781812 -0.04138791 -0.03197465 -0.021971118 0.004123546 -0.042541467 0.055211194
0.006682534 -0.019188114 -0.01277636 -0.05982681 0.036389135 -0.02105888 0.059036747 0.008222105
-0.039564133 0.058379784 -0.03785989 -0.03768174 -0.0590175 0.003491902 -0.046211116 0.041617975
-0.02368084 -0.044699416 -0.05762965 -0.028138345 0.060847297 -0.055985697 0.022909025 -0.005577083
-0.034077536 -0.04939707 0.05512451 0.009373393 -0.019705748 -0.023235055 0.0377602 0.061668135

linear2.bias f4 [3]
00000000: 2f6e 22bd e12b 2fbd 1aac 8e3c
-0.03965586 -0.042766456 0.017416049
